…
    'regularization': L1RegularizationLoss(device=cuda, scale=2.000000E-09),
    'skips': array([[0, 0, 0, 0, 0, 0, 0, 0, 0, 0],
       [1, 0, 1, 0, 0, 1, 0, 0, 0, 0],
       [0, 0, 0, 0, 0, 0, 0, 0, 0, 0],
       [0, 0, 0, 0, 0, 0, 0, 0, 0, 0],
       [0, 0, 0, 0, 0, 0, 0, 0, 0, 0],
       [0, 0, 0, 1, 0, 0, 0, 0, 0, 0],
       [0, 0, 1, 0, 0, 0, 0, 0, 0, 0],
       [0, 0, 1, 0, 0, 0, 0, 1, 0, 0],
       [0, 0, 0, 0, 0, 1, 0, 0, 0, 0],
       [0, 0, 0, 0, 0, 0, 0, 0, 0, 0]]),
    'width': 1024,
    'width_interpolation_steps_input': 0,
    'width_interpolation_steps_output': 3}
---
neural network:
Sequential(
  (0_linear(32,1024)): Linear(in_features=32, out_features=1024, bias=True)
  (0_swish(2'00)): Swish(
    (sigmoid): Sigmoid()
  )
  (1_skip_to_2(1024)): SkipConnection()
  (1_skip_to_5(1024)): SkipConnection()
  (1_linear(1024,1024)): Linear(in_features=1024, out_features=1024, bias=True)
  (1_swish(2'00)): Swish(
    (sigmoid): Sigmoid()
  )
  (2_skip_from_1(1024)): SkipConnection()
  (2_linear(2048,1024)): Linear(in_features=2048, out_features=1024, bias=True)
  (2_swish(2'00)): Swish(
    (sigmoid): Sigmoid()
  )
  (3_linear(1024,1024)): Linear(in_features=1024, out_features=1024, bias=True)
  (3_swish(0'50)): Swish(
    (sigmoid): Sigmoid()
  )
  (4_linear(1024,1024)): Linear(in_features=1024, out_features=1024, bias=True)
  (4_swish(0'50)): Swish(
    (sigmoid): Sigmoid()
  )
  (5_skip_from_1(1024)): SkipConnection()
  (5_batch_norm(2048)): BatchNorm1d(2048, eps=1e-05, momentum=0.1, affine=True, track_running_stats=True)
  (5_linear(2048,1024)): Linear(in_features=2048, out_features=1024, bias=True)
  (5_swish(1'00)): Swish(
    (sigmoid): Sigmoid()
  )
  (6_linear(1024,807)): Linear(in_features=1024, out_features=807, bias=True)
  (6_swish(2'00)): Swish(
    (sigmoid): Sigmoid()
  )
  (7_linear(807,590)): Linear(in_features=807, out_features=590, bias=True)
  (7_swish(0'50)): Swish(
    (sigmoid): Sigmoid()
  )
  (8_linear(590,373)): Linear(in_features=590, out_features=373, bias=True)
  (8_swish(2'00)): Swish(
    (sigmoid): Sigmoid()
  )
  (9_linear(373,156)): Linear(in_features=373, out_features=156, bias=True)
)
---
parameter count:
8965731
---
