…
    'regularization': L1RegularizationLoss(device=cuda, scale=2.000000E-09),
    'skips': array([[0, 0, 0, 0, 0, 0, 0, 0, 0, 0],
       [0, 0, 0, 0, 0, 0, 0, 0, 0, 0],
       [0, 0, 0, 0, 0, 0, 0, 0, 0, 0],
       [0, 0, 0, 0, 0, 0, 0, 0, 0, 0],
       [0, 0, 0, 0, 0, 1, 0, 0, 0, 0],
       [1, 0, 0, 0, 0, 0, 0, 0, 0, 0],
       [0, 1, 0, 0, 0, 0, 0, 0, 0, 0],
       [0, 0, 0, 0, 1, 0, 0, 0, 0, 0],
       [0, 0, 0, 0, 0, 0, 0, 0, 0, 0],
       [0, 0, 0, 0, 0, 0, 1, 0, 0, 0]]),
    'width': 256,
    'width_interpolation_steps_input': 0,
    'width_interpolation_steps_output': 4}
---
neural network:
Sequential(
  (0_linear(29,256)): Linear(in_features=29, out_features=256, bias=True)
  (0_swish(2'00)): Swish(
    (sigmoid): Sigmoid()
  )
  (1_linear(256,256)): Linear(in_features=256, out_features=256, bias=True)
  (1_swish(0'50)): Swish(
    (sigmoid): Sigmoid()
  )
  (2_linear(256,256)): Linear(in_features=256, out_features=256, bias=True)
  (2_swish(2'00)): Swish(
    (sigmoid): Sigmoid()
  )
  (3_linear(256,256)): Linear(in_features=256, out_features=256, bias=True)
  (3_swish(2'00)): Swish(
    (sigmoid): Sigmoid()
  )
  (4_linear(256,225)): Linear(in_features=256, out_features=225, bias=True)
  (4_swish(1'00)): Swish(
    (sigmoid): Sigmoid()
  )
  (5_linear(225,194)): Linear(in_features=225, out_features=194, bias=True)
  (5_swish(1'00)): Swish(
    (sigmoid): Sigmoid()
  )
  (6_linear(194,163)): Linear(in_features=194, out_features=163, bias=True)
  (6_swish(2'00)): Swish(
    (sigmoid): Sigmoid()
  )
  (7_linear(163,132)): Linear(in_features=163, out_features=132, bias=True)
  (7_swish(0'50)): Swish(
    (sigmoid): Sigmoid()
  )
  (8_batch_norm(132)): BatchNorm1d(132, eps=1e-05, momentum=0.1, affine=True, track_running_stats=True)
  (8_linear(132,101)): Linear(in_features=132, out_features=101, bias=True)
)
---
parameter count:
373863
---
