…
       [0, 0, 1, 1, 0, 0, 0, 0, 0, 0, 0, 0, 0, 0],
       [0, 0, 0, 0, 0, 0, 0, 0, 0, 0, 0, 0, 0, 0],
       [0, 0, 0, 0, 0, 0, 0, 0, 0, 0, 0, 0, 0, 0],
       [0, 0, 0, 1, 0, 1, 0, 0, 0, 0, 0, 0, 0, 1],
       [0, 0, 1, 0, 0, 0, 0, 0, 0, 0, 0, 0, 0, 0],
       [0, 0, 0, 0, 0, 0, 0, 0, 0, 0, 0, 0, 0, 0],
       [0, 0, 0, 0, 0, 0, 0, 0, 0, 0, 0, 0, 0, 0],
       [1, 0, 0, 0, 0, 0, 0, 0, 0, 0, 0, 0, 0, 1],
       [0, 0, 0, 0, 0, 0, 0, 0, 0, 0, 0, 0, 0, 0]]),
    'width': 1024,
    'width_interpolation_steps_input': 0,
    'width_interpolation_steps_output': 0}
---
neural network:
Sequential(
  (0_linear(188,1024)): Linear(in_features=188, out_features=1024, bias=True)
  (0_swish(2'00)): Swish(
    (sigmoid): Sigmoid()
  )
  (1_skip_to_2(1024)): SkipConnection()
  (1_linear(1024,1024)): Linear(in_features=1024, out_features=1024, bias=True)
  (1_swish(1'00)): Swish(
    (sigmoid): Sigmoid()
  )
  (2_skip_from_1(1024)): SkipConnection()
  (2_linear(2048,1024)): Linear(in_features=2048, out_features=1024, bias=True)
  (2_swish(1'00)): Swish(
    (sigmoid): Sigmoid()
  )
  (3_skip_to_6(1024)): SkipConnection()
  (3_linear(1024,1024)): Linear(in_features=1024, out_features=1024, bias=True)
  (3_swish(2'00)): Swish(
    (sigmoid): Sigmoid()
  )
  (4_batch_norm(1024)): BatchNorm1d(1024, eps=1e-05, momentum=0.1, affine=True, track_running_stats=True)
  (4_linear(1024,1024)): Linear(in_features=1024, out_features=1024, bias=True)
  (4_swish(2'00)): Swish(
    (sigmoid): Sigmoid()
  )
  (5_linear(1024,1024)): Linear(in_features=1024, out_features=1024, bias=True)
  (5_swish(0'50)): Swish(
    (sigmoid): Sigmoid()
  )
  (6_skip_from_3(1024)): SkipConnection()
  (6_linear(2048,1024)): Linear(in_features=2048, out_features=1024, bias=True)
  (6_swish(0'50)): Swish(
    (sigmoid): Sigmoid()
  )
  (7_linear(1024,1024)): Linear(in_features=1024, out_features=1024, bias=True)
  (7_swish(0'50)): Swish(
    (sigmoid): Sigmoid()
  )
  (8_skip_to_10(1024)): SkipConnection()
  (8_linear(1024,1024)): Linear(in_features=1024, out_features=1024, bias=True)
  (8_swish(0'50)): Swish(
    (sigmoid): Sigmoid()
  )
  (9_linear(1024,1024)): Linear(in_features=1024, out_features=1024, bias=True)
  (9_swish(0'50)): Swish(
    (sigmoid): Sigmoid()
  )
  (10_skip_from_8(1024)): SkipConnection()
  (10_linear(2048,189)): Linear(in_features=2048, out_features=189, bias=True)
)
---
parameter count:
12126407
---
