…
       [0, 0, 0, 0, 0, 0, 0, 0, 0, 0, 1, 0],
       [1, 0, 0, 0, 0, 0, 0, 0, 0, 0, 0, 0],
       [0, 0, 0, 0, 0, 0, 0, 0, 0, 0, 0, 0],
       [0, 0, 0, 0, 0, 0, 0, 0, 0, 0, 0, 0],
       [0, 0, 0, 0, 0, 0, 0, 0, 0, 0, 0, 0],
       [0, 0, 0, 0, 0, 0, 0, 0, 1, 0, 0, 0],
       [0, 0, 0, 0, 0, 0, 0, 0, 0, 0, 0, 0],
       [0, 0, 0, 0, 0, 1, 0, 0, 0, 0, 0, 0],
       [0, 0, 0, 0, 0, 0, 0, 0, 0, 0, 0, 0]]),
    'width': 512,
    'width_interpolation_steps_input': 2,
    'width_interpolation_steps_output': 5}
---
neural network:
Sequential(
  (0_skip_to_8(459)): SkipConnection()
  (0_skip_to_9(459)): SkipConnection()
  (0_linear(459,477)): Linear(in_features=459, out_features=477, bias=True)
  (0_swish(1'00)): Swish(
    (sigmoid): Sigmoid()
  )
  (1_skip_to_8(477)): SkipConnection()
  (1_skip_to_9(477)): SkipConnection()
  (1_linear(477,495)): Linear(in_features=477, out_features=495, bias=True)
  (1_swish(0'50)): Swish(
    (sigmoid): Sigmoid()
  )
  (2_skip_to_5(495)): SkipConnection()
  (2_skip_to_7(495)): SkipConnection()
  (2_batch_norm(495)): BatchNorm1d(495, eps=1e-05, momentum=0.1, affine=True, track_running_stats=True)
  (2_linear(495,512)): Linear(in_features=495, out_features=512, bias=True)
  (2_swish(0'50)): Swish(
    (sigmoid): Sigmoid()
  )
  (3_skip_to_8(512)): SkipConnection()
  (3_batch_norm(512)): BatchNorm1d(512, eps=1e-05, momentum=0.1, affine=True, track_running_stats=True)
  (3_linear(512,512)): Linear(in_features=512, out_features=512, bias=True)
  (3_swish(2'00)): Swish(
    (sigmoid): Sigmoid()
  )
  (4_linear(512,504)): Linear(in_features=512, out_features=504, bias=True)
  (4_swish(0'50)): Swish(
    (sigmoid): Sigmoid()
  )
  (5_skip_from_2(495)): SkipConnection()
  (5_linear(999,495)): Linear(in_features=999, out_features=495, bias=True)
  (5_swish(0'50)): Swish(
    (sigmoid): Sigmoid()
  )
  (6_linear(495,486)): Linear(in_features=495, out_features=486, bias=True)
  (6_swish(0'50)): Swish(
    (sigmoid): Sigmoid()
  )
  (7_skip_from_2(495)): SkipConnection()
  (7_linear(981,478)): Linear(in_features=981, out_features=478, bias=True)
  (7_swish(1'00)): Swish(
    (sigmoid): Sigmoid()
  )
  (8_skip_from_0(459)): SkipConnection()
  (8_skip_from_1(477)): SkipConnection()
  (8_skip_from_3(512)): SkipConnection()
  (8_linear(1926,469)): Linear(in_features=1926, out_features=469, bias=True)
  (8_swish(1'00)): Swish(
    (sigmoid): Sigmoid()
  )
  (9_skip_from_0(459)): SkipConnection()
  (9_skip_from_1(477)): SkipConnection()
  (9_linear(1405,460)): Linear(in_features=1405, out_features=460, bias=True)
)
---
parameter count:
3989188
---
